…
            "Downloading https://ultralytics.com/assets/Arial.ttf to '/root/.config/yolov12/Arial.ttf'...\n"
          ]
        },
        {
          "output_type": "stream",
          "name": "stderr",
          "text": [
            "100%|â–ˆâ–ˆâ–ˆâ–ˆâ–ˆâ–ˆâ–ˆâ–ˆâ–ˆâ–ˆ| 755k/755k [00:00<00:00, 20.5MB/s]\n"
          ]
        },
        {
          "output_type": "stream",
          "name": "stdout",
          "text": [
            "Overriding model.yaml nc=80 with nc=9\n",
            "\n",
            "                   from  n    params  module                                       arguments                     \n",
            "  0                  -1  1       464  ultralytics.nn.modules.conv.Conv             [3, 16, 3, 2]                 \n",
            "  1                  -1  1      4672  ultralytics.nn.modules.conv.Conv             [16, 32, 3, 2]                \n",
            "  2                  -1  1      6640  ultralytics.nn.modules.block.C3k2            [32, 64, 1, False, 0.25]      \n",
            "  3                  -1  1     36992  ultralytics.nn.modules.conv.Conv             [64, 64, 3, 2]                \n",
            "  4                  -1  1     26080  ultralytics.nn.modules.block.C3k2            [64, 128, 1, False, 0.25]     \n",
            "  5                  -1  1    147712  ultralytics.nn.modules.conv.Conv             [128, 128, 3, 2]              \n",
            "  6                  -1  2    180864  ultralytics.nn.modules.block.A2C2f           [128, 128, 2, True, 4]        \n",
            "  7                  -1  1    295424  ultralytics.nn.modules.conv.Conv             [128, 256, 3, 2]              \n",
            "  8                  -1  2    689408  ultralytics.nn.modules.block.A2C2f           [256, 256, 2, True, 1]        \n",
            "  9                  -1  1         0  torch.nn.modules.upsampling.Upsample         [None, 2, 'nearest']          \n",
            " 10             [-1, 6]  1         0  ultralytics.nn.modules.conv.Concat           [1]                           \n",
            " 11                  -1  1     86912  ultralytics.nn.modules.block.A2C2f           [384, 128, 1, False, -1]      \n",
            " 12                  -1  1         0  torch.nn.modules.upsampling.Upsample         [None, 2, 'nearest']          \n",
            " 13             [-1, 4]  1         0  ultralytics.nn.modules.conv.Concat           [1]                           \n",
            " 14                  -1  1     24000  ultralytics.nn.modules.block.A2C2f           [256, 64, 1, False, -1]       \n",
            " 15                  -1  1     36992  ultralytics.nn.modules.conv.Conv             [64, 64, 3, 2]                \n",
            " 16            [-1, 11]  1         0  ultralytics.nn.modules.conv.Concat           [1]                           \n",
            " 17                  -1  1     74624  ultralytics.nn.modules.block.A2C2f           [192, 128, 1, False, -1]      \n",
            " 18                  -1  1    147712  ultralytics.nn.modules.conv.Conv             [128, 128, 3, 2]              \n",
            " 19             [-1, 8]  1         0  ultralytics.nn.modules.conv.Concat           [1]                           \n",
            " 20                  -1  1    378880  ultralytics.nn.modules.block.C3k2            [384, 256, 1, True]           \n",
            " 21        [14, 17, 20]  1    432427  ultralytics.nn.modules.head.Detect           [9, [64, 128, 256]]           \n",
            "YOLOv12n summary: 465 layers, 2,569,803 parameters, 2,569,787 gradients, 6.5 GFLOPs\n",
            "\n",
            "Transferred 640/691 items from pretrained weights\n",
            "\u001b[34m\u001b[1mTensorBoard: \u001b[0mStart with 'tensorboard --logdir runs/detect/train', view at http://localhost:6006/\n",
            "Freezing layer 'model.21.dfl.conv.weight'\n",
…
